models/checkpoints/checkpoint.pth (torch_old, 173972 bytes, 6 tensors)

q_network.fc0.weight f4 [128, 4]
0	0x3e977d20	0.2958765
1	0x3e389c0e	0.1802828
2	0x3f905963	1.1277279
3	0x3e905020	0.2818613
4	0xbf1375bb	-0.5760152
5	0xbeb18bdd	-0.3467702
6	0xbea6284a	-0.32452613
7	0xbe803577	-0.2504079
8	0x3e9f1eaf	0.31078097
9	0xbe552900	-0.20816422
10	0xbf191878	-0.5980296
11	0xbda0f0f3	-0.078584574
12	0xbe8472d7	-0.25868866
13	0x3eaa0788	0.3320887
14	0x3f9ecd82	1.2406466
15	0x3ee5f5f8	0.44914222
16	0x3f3e7add	0.74406224
17	0x3ace56a6	0.0015742376
18	0x3e74650a	0.23866668
19	0xbcf477ac	-0.02984222
20	0xbf3f10a8	-0.7463479
21	0xbe89ef07	-0.26940176
22	0xbfd6a4cc	-1.6769042
23	0xbe56baca	-0.20969692
24	0xbad98c23	-0.001659755
25	0xbe577541	-0.21040823
26	0x3ead9fe0	0.33911037
27	0x3f0fab3c	0.5612066
28	0xbeb31078	-0.34973502
29	0xbe8d46be	-0.27593035
30	0xbf510421	-0.81646925
31	0xbf2c1094	-0.67212796
32	0x3e285dbf	0.16442011
33	0xbf073e51	-0.5282946
34	0x3f8444fb	1.0333551
35	0xbe173d8f	-0.14769576
36	0xbf241bea	-0.64105093
37	0xbef9a2b6	-0.4875695
38	0xbf17dab7	-0.5931811
39	0xbec5e16d	-0.3864855
40	0x3e5da75b	0.21645872
41	0x3d93ea93	0.07222476
42	0x3fa17088	1.2612467
43	0x3e7bfa3b	0.24607174
44	0xbe99b663	-0.30021963
45	0xbe8b0fb1	-0.2716041
46	0x3e034f84	0.12823302
47	0x3ec39de5	0.382064
48	0xbd7aeaf0	-0.06125921
49	0xbf12ca4c	-0.5733993
50	0xc0101a25	-2.2515957
51	0xbec81b45	-0.39083305
52	0x3ee93a90	0.45552492
53	0xbaa657e6	-0.0012690991
54	0xbec5d26e	-0.38637108
55	0xbe167e74	-0.14696676
56	0xbe753380	-0.23945427
57	0x3ecdafba	0.4017313
58	0x3d298d62	0.0413946
59	0xbea040a5	-0.3129932
60	0xbe566ecf	-0.20940708
61	0x3ef9269f	0.48662278
62	0x3f34e67c	0.7066419
63	0x3e9b65ba	0.3035105
64	0xbee9d34a	-0.45669013
65	0xbd7f0c0e	-0.062267356
66	0x3f05c87b	0.52259034
67	0x3e5ac472	0.21364
68	0xbe9c1f56	-0.30492657
69	0xbed00e22	-0.40635782
70	0xbe03fde2	-0.12889817
71	0xbedcd929	-0.4313443
72	0x3f2a08c4	0.66419625
73	0x3e2fe14e	0.1717579
74	0xbeeba07c	-0.46020877
75	0x3beb78d2	0.0071860338
76	0x3eec5c4d	0.4616417
77	0xbe7550a8	-0.23956549
78	0xbf76c260	-0.9639034
79	0x3eaa2b47	0.33236143
80	0xbe21a5f5	-0.15785964
81	0x3da5adf6	0.08089821
82	0xbe553253	-0.20819978
83	0xbd676c30	-0.05649966
84	0x3ef4c02d	0.47802868
85	0x3eb2ca95	0.34920183
86	0x3e8fe615	0.28105226
87	0x3bbd6be2	0.005780683
88	0xbe8cd93a	-0.2750948
89	0xbcce4f66	-0.025184345
90	0x3e7c46f7	0.24636446
91	0xbd4018eb	-0.046898764
92	0xbe4abc8a	-0.19798484
93	0x3e509009	0.20367445
94	0x3e34953f	0.17635058
95	0x3e4b9f23	0.19884925
96	0x3f2512a6	0.6448158
97	0xbea9d665	-0.33171383
98	0xbf2c4c6a	-0.673041
99	0xbd9fcd62	-0.078028455
100	0x3de61c92	0.11235918
101	0x3edb4749	0.42827824
102	0x3f7f22ad	0.99662286
103	0x3d985afc	0.07439229
104	0xbe3c4153	-0.18384294
105	0x3edceee8	0.4315102
106	0x3f8f3814	1.1188989
107	0x3ec68e16	0.38780278
108	0x3edc5b96	0.43038625
109	0xbee1ff7d	-0.44140235
110	0xbfa1676f	-1.260969
111	0x3e8c3f7e	0.2739219
112	0xbd2badde	-0.04191386
113	0xbe1d1f7d	-0.15344043
114	0x3e9c16f3	0.3048626
115	0xbe0f8a47	-0.14017592
116	0xbe9c870f	-0.30571792
117	0xbf0b0325	-0.54301673
118	0xc0121bf2	-2.2829556
119	0xbeca364b	-0.39494547
120	0x3e1b2572	0.15151003
121	0xbd9fd96d	-0.078051426
122	0x3fa7d6d7	1.3112439
123	0x3f07f52c	0.5310848
124	0xbf15fe48	-0.5859113
125	0xbf192859	-0.5982719
126	0xbfaaf2d2	-1.3355353
127	0xbe282e4e	-0.16423914
128	0xbf06f073	-0.52710646
129	0xbd24e299	-0.040255163
130	0x3f48486b	0.782355
131	0xbd99bd8c	-0.07506856
132	0xbeb2b2ef	-0.3490214
133	0xbe51a116	-0.20471606
134	0x3f0b3be8	0.54388285
135	0xbcdb9e52	-0.026808891
136	0xbebaeeea	-0.36510402
137	0xbd68818b	-0.056764167
138	0x3f1afd95	0.60543185
139	0x3e1d06f4	0.15334684
140	0xbd272177	-0.0408034
141	0x3dea769b	0.114484034
142	0x3fba0f0f	1.4535846
143	0x3e72186d	0.2364213
144	0xbf24c9d6	-0.6437048
145	0xbd4db180	-0.050218105
146	0xbfbfb513	-1.4977134
147	0x3d5bcbbd	0.053661097
148	0x3e3dd4b7	0.18538176
149	0xbea7a017	-0.32739326
150	0x3d2c3304	0.04204084
151	0xbe378b4f	-0.17924236
152	0x3f32e1bd	0.698757
153	0x3db1a636	0.0867428
154	0x3fa90e34	1.320746
155	0x3db65856	0.089035675
156	0x3eb1d47a	0.3473242
157	0xbc9ec9ce	-0.019383337
158	0x3fc5ae4f	1.544382
159	0x3dd8aeba	0.105802014
160	0xbecb52b9	-0.3971155
161	0xbf0c78d9	-0.548719
162	0x3e23b1d1	0.159858
163	0x3d311ea2	0.043242104
164	0xbd16a66e	-0.036779813
165	0xbdfe823b	-0.12427183
166	0x3ef6fd37	0.48240063
167	0xbdefeaeb	-0.11714729
168	0x3d6bedf5	0.05759998
169	0xbebe0d30	-0.37119436
170	0xbf661551	-0.89876276
171	0xbebed425	-0.37271228
172	0x3eab6b45	0.33480278
173	0x3e1b88cf	0.15188907
174	0xbe96d350	-0.29458094
175	0xbcc4038f	-0.023927478
176	0x3e95b866	0.29242247
177	0x3c5cebdb	0.013483967
178	0xbf475bfe	-0.77874744
179	0xbe94b9d2	-0.2904802
180	0x3f6919c2	0.9105493
181	0xbe495899	-0.19662704
182	0x3f5b7a4d	0.8573349
183	0xbdf19786	-0.11796479
184	0xbebb61f3	-0.36598167
185	0x3e446429	0.19178833
186	0x3e996576	0.2996022
187	0x3d3009fc	0.04297827
188	0xbe1c0ba1	-0.15238811
189	0x3e95ba0a	0.292435
190	0x3e4ef128	0.20209181
191	0x3dddb3fb	0.10825344
192	0x3f41dcc5	0.7572749
193	0x3e4140db	0.18872397
194	0x3fe0dd5f	1.7567557
195	0x3ea3a5a4	0.3196231
196	0x3f087220	0.5329914
197	0x3d990261	0.07471157
198	0xbe397888	-0.18112385
199	0x3d2c7b2f	0.042109665
200	0xbf8deb51	-1.1087438
201	0x3e671fba	0.22570696
202	0x3e0e9904	0.13925558
203	0x3eaca7be	0.33721727
204	0xbf13abba	-0.5768391
205	0xbe99c87e	-0.30035776
206	0x3d6df8ce	0.058098607
207	0x3f3429c4	0.7037623
208	0xbe29ae25	-0.16570337
209	0xbddd1927	-0.10795813
210	0x3f227070	0.63452816
211	0x3e13138d	0.14362927
212	0x3f30071f	0.68760866
213	0xbeb9334a	-0.36171943
214	0x3e54b57b	0.20772354
215	0xbea1c946	-0.31598872
216	0xbe9c27f1	-0.30499223
217	0x3e258f1f	0.16167878
218	0x3f78eba1	0.9723454
219	0x3e439f84	0.19103819
220	0x3ee16dba	0.44029027
221	0x3d0428c4	0.03226544
222	0xbf4e7ee6	-0.8066238
223	0x3de0dab2	0.10979213
224	0xbf090068	-0.53516245
225	0xbe58b7a0	-0.21163797
226	0xbfe73648	-1.806344
227	0xbe405699	-0.18783034
228	0xbf5d067a	-0.8633801
229	0x3e2e5eac	0.17028302
230	0xbf418a91	-0.7560206
231	0xbcf85ce7	-0.030317737
232	0x3f19a6cd	0.6002014
233	0xbe2cc34f	-0.1687138
234	0xbf0c6cfe	-0.5485381
235	0xbe363369	-0.17793049
236	0xbe33f1c1	-0.1757269
237	0xbeae295c	-0.3401593
238	0x3f8ad4e3	1.0846218
239	0x3d838588	0.064219534
240	0xbf11b046	-0.56909597
241	0x3caf63c3	0.021409875
242	0x3f4f15e4	0.8089278
243	0xbeb0ebd2	-0.34554917
244	0xbf7e6e2d	-0.99386865
245	0xbee008af	-0.43756625
246	0xc000b1fd	-2.0108635
247	0xbea0e038	-0.31421065
248	0xbe4bc953	-0.19901018
249	0xbecf4401	-0.4048157
250	0xbf908fe3	-1.1293911
251	0x3dea58c1	0.1144271
252	0xbf101857	-0.5628714
253	0x3dc3efb4	0.09567204
254	0xbf2031ea	-0.6257616
255	0xbe2ff4db	-0.17183249

q_network.fc0.bias f4 [128]
0	0xbe722e8b	-0.23650567
1	0xbd78e7e5	-0.060768027
2	0x3dc1ad45	0.09456877
3	0xbc620ab9	-0.013796502
4	0xbba7ddf5	-0.005122895
5	0xbe3aec69	-0.18254246
6	0xbd9b1be2	-0.075736776
7	0xbf002d3d	-0.5006903
8	0x3d9dc8e9	0.07704336
9	0x3dfbecea	0.12301047
10	0xbeb18fa0	-0.3467989
11	0xbe92f45e	-0.28702062
12	0x3d8d700e	0.06906138
13	0x3d9ebc5d	0.07750771
14	0xbe3a2ca4	-0.18181092
15	0x3d63202d	0.055450607
16	0xbe3867dc	-0.18008369
17	0xbe2471e1	-0.16059066
18	0xbeff9e72	-0.49925572
19	0xbe372dcb	-0.17888562
20	0x3de448b3	0.11146679
21	0xbf1248d9	-0.57142407
22	0x3ea833e1	0.3285208
23	0x3d49017e	0.04907369
24	0x3e1a3295	0.15058358
25	0xbeb65316	-0.35610265
26	0x3dae198d	0.08500967
27	0x3cc29ffc	0.023757927
28	0xbf031887	-0.512093
29	0x3de34858	0.11097783
30	0xbd3929a4	-0.045205727
31	0x3d9d0104	0.07666209
32	0x3e21133d	0.15729995
33	0xbeaa22e2	-0.33229738
34	0xbefd0e52	-0.49424988
35	0xbdf880eb	-0.12133964
36	0xbe0dc1d4	-0.13843471
37	0x3e658945	0.22415645
38	0x3b8ae870	0.0042391345
39	0xbcef085d	-0.029178793
40	0xbeb73774	-0.35784495
41	0xbef7c39c	-0.48391426
42	0xbed4ca38	-0.4156053
43	0x3cd8b287	0.026452316
44	0xbf0459e0	-0.5169964
45	0x3bf006c9	0.0073250276
46	0x3ea6cbce	0.32577366
47	0xbefb99ea	-0.49140865
48	0x3ac67fee	0.0015144327
49	0xbb95eeab	-0.0045755706
50	0xbe30031a	-0.17188683
51	0xbe1931fb	-0.14960472
52	0x3e3ff1cf	0.18744586
53	0xbcc4fb18	-0.024045512
54	0xbd586150	-0.05282718
55	0x3e087755	0.13326772
56	0xbdc367a8	-0.09541255
57	0x3c9e3952	0.019314442
58	0xbda2d434	-0.07950631
59	0x3ea294a8	0.3175404
60	0xbe9ae4e9	-0.3025277
61	0xbe7c2dd1	-0.24626853
62	0x3e2bdc1e	0.16783187
63	0xbf2d45d3	-0.6768467
64	0x3da039ca	0.078235224
65	0x3d918ba6	0.07106714
66	0xbf114ebd	-0.5676077
67	0xbeb16bc3	-0.34652528
68	0xbccb0852	-0.02478424
69	0x3df20ccb	0.11818846
70	0x3d007e56	0.031370483
71	0xbe3612dc	-0.17780632
72	0x3df9f579	0.12205023
73	0x3e4befd4	0.19915706
74	0xbdfa57a6	-0.12223749
75	0xbdf11ec5	-0.11773447
76	0xbee974e1	-0.45596984
77	0x3d9e8f4e	0.07742177
78	0x3eb87fd5	0.36035028
79	0x3d8f97cf	0.07011377
80	0x3e323e37	0.17406546
81	0xbe0ffdec	-0.14061707
82	0x3db3e5f6	0.08784096
83	0x3e659275	0.2241915
84	0xbd18fddd	-0.037351478
85	0x3e8a9e26	0.27073783
86	0x3e1d0630	0.15334392
87	0xbe2c4534	-0.16823274
88	0x3de565dc	0.11201069
89	0xbf165f75	-0.58739406
90	0xbd621412	-0.05519492
91	0xbe90e516	-0.2829978
92	0x3e941ed2	0.28929764
93	0x3bf1a364	0.007374214
94	0xbcb42df3	-0.021994567
95	0x3e288874	0.16458303
96	0x3cd3b26e	0.025841918
97	0xbc955ebe	-0.018233653
98	0x3e4d879b	0.2007126
99	0xbe2160d3	-0.15759592
100	0xbcbea72f	-0.023273079
101	0x3e85f8f5	0.26166502
102	0xbe81a248	-0.25319123
103	0xbb8994b9	-0.0041986373
104	0x3d8c6d66	0.068568036
105	0xbd01ea48	-0.03171757
106	0x3ec45b74	0.38351023
107	0x3dd48f1c	0.103788584
108	0xbd6b09d2	-0.057382412
109	0x3e5da12c	0.21643513
110	0x3e09aebd	0.13445564
111	0xbea18dfb	-0.31553635
112	0xbeff05d3	-0.4980913
113	0xbc9cd0bf	-0.019142507
114	0x3e85ed40	0.2615757
115	0xbed60a6c	-0.41804826
116	0xbd9254c2	-0.071450725
117	0xbf26f463	-0.65216655
118	0xbed117be	-0.40838426
119	0xbeb8612a	-0.3601163
120	0x3c88ef8c	0.016715787
121	0xbebfed5d	-0.3748578
122	0xbe543dbb	-0.20726673
123	0xbd30bfe2	-0.043151744
124	0xbe63d405	-0.22248848
125	0xbe834515	-0.25638643
126	0xbc0ff26c	-0.008785825
127	0x3c581f9a	0.013191128

q_network.fc1.weight f4 [128, 128]
0	0xbe78236c	-0.24232262
1	0xbf02211c	-0.5083177
2	0x3e613c15	0.21995576
3	0xbf35a125	-0.7094901
4	0x3e004411	0.12525965
5	0xbf1a62f8	-0.60307264
6	0xbe8925d7	-0.26786682
7	0xbdd3c961	-0.10341144
8	0xbd8e8e2f	-0.06960713
9	0xbf83faf4	-1.031096
10	0xbe6bf21d	-0.23041578
11	0xbe07dcad	-0.13267775
12	0xbf93ccce	-1.1546876
13	0x3d4c45a4	0.049871102
14	0x3ca4f118	0.020134494
15	0xbde82ae6	-0.11336307
16	0xbc9add04	-0.018904217
17	0x3de3efec	0.11129746
18	0xbd7c8dd5	-0.0616587
19	0xbde5fc62	-0.11229779
20	0x3d9b804d	0.07592831
21	0xbe98825a	-0.2978695
22	0x3c18ed75	0.009333958
23	0xbe0e9197	-0.13922726
24	0x3d0144e8	0.031559855
25	0xbeedf8cc	-0.4647888
26	0xbf3939aa	-0.72353613
27	0xb90b0161	-0.00013256587
28	0xbd9283a2	-0.07154013
29	0xbf4f3aa8	-0.8094888
30	0xbe159ea7	-0.14611302
31	0xbf166852	-0.5875293
32	0xbbeaf8f1	-0.0071707894
33	0xbe6c297e	-0.23062703
34	0xbe0101c4	-0.1259833
35	0xbf8be412	-1.0928977
36	0xbeb84666	-0.3599121
37	0xbd26a70e	-0.04068666
38	0xbe942893	-0.28937206
39	0xbecaa611	-0.39579824
40	0xbe501367	-0.20319901
41	0x3d7ec352	0.06219799
42	0xbe0fdd56	-0.14049277
43	0x3dcdd267	0.10049897
44	0x3d49b1e3	0.04924191
45	0x3c8d7a8a	0.017270345
46	0x3db5e3db	0.088813506
47	0xbdca0b06	-0.09865384
48	0xbec9be02	-0.39402777
49	0xbcf9ccb2	-0.030493114
50	0xbde22645	-0.110424556
51	0xbe0524b9	-0.1300229
52	0x3d0d94ce	0.03456574
53	0x3db92741	0.0904069
54	0x3de1f82b	0.110336624
55	0xbba5b1da	-0.005056602
56	0xbe8b362c	-0.27189767
57	0xbe5ddbf7	-0.21665941
58	0x3dc7ea7a	0.0976152
59	0xbb890766	-0.00418179
60	0xbe695b54	-0.22788745
61	0xbf8b1f42	-1.0868914
62	0xbeade122	-0.33960825
63	0xbd6073a7	-0.054797795
64	0xbecb1cae	-0.39670318
65	0xbcb94053	-0.02261368
66	0x3e2ec10a	0.17065826
67	0xbebadd7d	-0.36497107
68	0xbd702128	-0.05862537
69	0x3d38c538	0.045109957
70	0xbca7b9cf	-0.020474343
71	0xbf032403	-0.51226825
72	0x3d50e6a2	0.0510012
73	0xbe0cc5bd	-0.13747306
74	0xbe894715	-0.26812044
75	0xbf03cbd9	-0.5148292
76	0xbe4401ae	-0.19141266
77	0x3d980ec7	0.074246936
78	0x3cfbc733	0.030734634
79	0x3d63e009	0.05563358
80	0x3d9e2798	0.07722396
81	0x3e0390cf	0.12848209
82	0xbe7cfc32	-0.2470558
83	0xbdddbc53	-0.108269356
84	0xbea3fac9	-0.3202727
85	0x3db79533	0.08964004
86	0xbf45b7c0	-0.77233505
87	0xbed3c95d	-0.41364565
88	0xbe1ad226	-0.15119228
89	0xbdb67bf5	-0.08910362
90	0x3dbb122c	0.091343254
91	0x3e1527e5	0.14566
92	0xbce1728c	-0.02752044
93	0xbd17e520	-0.037083745
94	0xbe465c0f	-0.19371055
95	0x3dd4b391	0.10385812
96	0xbf0e540d	-0.55597
97	0xbe7d4d4a	-0.24736515
98	0xbe11418c	-0.1418516
99	0xbf74a095	-0.9555753
100	0xbec322b5	-0.38112417
101	0xbd352e0b	-0.044233363
102	0x3dd34a2f	0.10316884
103	0x3e6b08ad	0.22952528
104	0xbf36b8f5	-0.7137597
105	0xbf2524d1	-0.645093
106	0x3db87a25	0.09007672
107	0x3c36557f	0.011128782
108	0x3e29b3e4	0.16572529
109	0x3d8efb46	0.0698152
110	0xbd07e360	-0.033175826
111	0xba89c765	-0.0010511695
112	0x3d204fee	0.039138727
113	0xbe62785e	-0.22116229
114	0xbe85ff03	-0.2617112
115	0xbc1f8f8b	-0.009738813
116	0xbede5d43	-0.43430528
117	0xbd2cf3e0	-0.042224765
118	0xbdeb9bcc	-0.11504325
119	0xbd4bd402	-0.049762733
120	0xbe6cd532	-0.23128203
121	0xbdbfedbc	-0.09371516
122	0xbe88b4a0	-0.26700306
123	0x3cfb8441	0.030702712
124	0x3dc20a21	0.09474588
125	0x3ce8075d	0.028323824
126	0xbf64e2e4	-0.8940871
127	0xbd7254b9	-0.05916283
128	0x3e0d0207	0.13770305
129	0xbe263dd0	-0.16234517
130	0x3e364e7b	0.17803375
131	0x3e499b95	0.19688256
132	0xbe15b36f	-0.1461923
133	0x3dbca14a	0.09210451
134	0x3dd0bd95	0.1019241
135	0xbda47149	-0.0802942
136	0x3cd1b4c2	0.025598887
137	0x3e914dc4	0.28379643
138	0xbe40cbfa	-0.18827811
139	0xbe711672	-0.23543718
140	0x3eeea216	0.46608037
141	0x3d9e41d7	0.07727402
142	0xbe93905d	-0.28821078
143	0x3eca1b8d	0.39474145
144	0xbede188b	-0.433781
145	0xbd801a37	-0.06255
146	0x3cad8c8a	0.021185178
147	0xbe8861b1	-0.26637033
148	0x3dc1a388	0.09455019
149	0xbe303989	-0.17209448
150	0x3da3578e	0.07975684
151	0x3e1bf8b6	0.15231594
152	0x3e03543f	0.12825106
153	0xbe7347cb	-0.23757856
154	0xbea54bae	-0.32284302
155	0x3dd96844	0.1061559
156	0xbd9485e8	-0.07252103
157	0x3f0ef07b	0.55835694
158	0x3e079865	0.13241728
159	0x3c9e6a3b	0.019337764
160	0x3da7bab0	0.08189905
161	0xbecfffb4	-0.40624774
162	0xbe71c9fa	-0.23612204
163	0xbd17f815	-0.037101824
164	0xbdcd3f7d	-0.10021875
165	0x3df672e7	0.12033635
166	0x3c3c2e69	0.011485674
167	0xbda75b0f	-0.08171665
168	0xbe715be5	-0.23570211
169	0x3dd2fc9a	0.10302086
170	0x3e56658a	0.20937172
171	0x3e31b249	0.17353167
172	0x3c398ec8	0.011325546
173	0xbb48ce8c	-0.003064069
174	0x3d4d5e0a	0.05013851
175	0xbc9bdecc	-0.019027136
176	0x3b8a4752	0.004219928
177	0xbce96dcf	-0.028494744
178	0xbe3e48e0	-0.18582487
179	0xbe5d67ff	-0.21621703
180	0x3d88a417	0.06671923
181	0x3e6aa406	0.22914132
182	0xbec678ff	-0.38764188
183	0xbccd7d4f	-0.025084166
184	0xbdbb6f47	-0.09152084
185	0x3dbc5a0d	0.09196863
186	0x3dcd0f00	0.10012627
187	0x3c5ce7b7	0.0134829795
188	0xbeec6c12	-0.461762
189	0x3e9ac9f4	0.30232203
190	0xbc726390	-0.014794245
191	0xbeb88125	-0.3603603
192	0xbe78ed8a	-0.24309364
193	0x3e1d3563	0.15352397
194	0xbd3d00f9	-0.046143506
195	0xbc80ffb4	-0.015746929
196	0x3ca7ae15	0.020468751
197	0x3d702abe	0.058634512
198	0x3e9af2d1	0.3026338
199	0xbd12537a	-0.03572414
200	0x3d93be9f	0.072140925
201	0x3d4c0718	0.049811453
202	0xbcc8c193	-0.024506366
203	0x3e12ff31	0.1435516
204	0xbdfe59f7	-0.12419503
205	0xbd2a92d9	-0.04164395
206	0x3d9fcbf5	0.078025736
207	0x3df3b7a8	0.11900264
208	0xbdfe6d83	-0.124232315
209	0x3deccb3e	0.11562203
210	0x3df020eb	0.117250286
211	0xbcccb888	-0.024990335
212	0x3e4c7cb6	0.19969448
213	0x3da07f3c	0.07836768
214	0x3e8bb8c6	0.27289408
215	0xbf0bf55f	-0.5467128
216	0x3e85fdc3	0.26170167
217	0xbe7465b1	-0.23866917
218	0x3ca5a12d	0.020218456
219	0x3c383bc0	0.011244714
220	0x3e38a64c	0.18032187
221	0xbcb2b424	-0.021814413
222	0x3d6acac4	0.05732228
223	0xbc9a2782	-0.018817667
224	0x3e0e0c46	0.1387187
225	0xbdad3c3c	-0.084587544
226	0x3ca76911	0.020435842
227	0x3ee375cd	0.44425812
228	0x3e100155	0.14063008
229	0x3db3638a	0.0875922
230	0xbeccf926	-0.40033835
231	0xbcb1af6a	-0.02169009
232	0x3e314e44	0.17315012
233	0xbd45bd13	-0.04827602
234	0x3e34ca3d	0.17655273
235	0xbdac160a	-0.08402641
236	0x3e240223	0.1601644
237	0xbe2fb509	-0.17158903
238	0xbb293be8	-0.002582306
239	0x3e476c7c	0.19474977
240	0xbdb480cd	-0.08813629
241	0x3c1ab63c	0.009442862
242	0xbf027861	-0.50964934
243	0xbde22c3f	-0.110435955
244	0x3d9e0303	0.07715418
245	0xbe9f51b6	-0.31117028
246	0xbde66ae0	-0.112508535
247	0x3c334d77	0.010943762
248	0xbe272e73	-0.16326313
249	0x3e885409	0.26626614
250	0xbdfa2e81	-0.12215901
251	0xbd748480	-0.059696674
252	0xbe338c8f	-0.17534088
253	0xbe871ec2	-0.26390654
254	0xbdb7e53c	-0.0897927
255	0x3e46caa1	0.19413234

q_network.fc1.bias f4 [128]
0	0x3b26f3c8	0.0025474895
1	0x3bf8dd4a	0.007594739
2	0x3d52ad35	0.051434714
3	0x3d4245b8	0.04742977
4	0x3e13e009	0.14440931
5	0xbce29bb4	-0.027662136
6	0x3d80b0d1	0.06283725
7	0xbca2545c	-0.019815616
8	0x3e1fd9dd	0.15610452
9	0x3d1b6f7f	0.037948128
10	0xbd4b5bdb	-0.049648147
11	0x3d9d88c6	0.07692103
12	0xbde8c2b6	-0.11365263
13	0x3db7510a	0.08951004
14	0xbdb0c18d	-0.08630667
15	0x3e205166	0.15656051
16	0xbc9b6f2f	-0.018973915
17	0xbd13cb54	-0.03608258
18	0x3bd2e9c3	0.006436558
19	0x3d399bb9	0.045314524
20	0xbc9075ee	-0.017634358
21	0x3c067428	0.008206405
22	0x3b0f0fb6	0.0021829433
23	0x3d259819	0.040428255
24	0x3e3cc9c8	0.18436348
25	0x3d965f23	0.07342365
26	0x3d866585	0.06562332
27	0xbce0c4e4	-0.027437635
28	0x3d5700c0	0.05249095
29	0xbda8db7c	-0.08244988
30	0xbe39bdfd	-0.18138881
31	0xbda675cc	-0.08127937
32	0xbe813bca	-0.25240928
33	0xbd2c5667	-0.042074587
34	0x3d168abc	0.0367534
35	0x3dd3ceb0	0.10342157
36	0xbd0224b7	-0.031773295
37	0xbd084c24	-0.03327574
38	0x3d66cd2b	0.056348007
39	0x3cd61ec3	0.026137715
40	0x3e33dcd6	0.17564711
41	0x3c272c88	0.010203488
42	0xbda839ab	-0.08214124
43	0xbd0879ea	-0.03331939
44	0x3a457e7c	0.0007533801
45	0x3e0ace51	0.13555266
46	0x3e80c069	0.25146797
47	0x3d7dd2ba	0.061968543
48	0x3bacfa83	0.0052788868
49	0xbd8fb92c	-0.070177406
50	0x3db5deb4	0.08880368
51	0xbdc2cf47	-0.09512191
52	0xbe03178c	-0.12801951
53	0xbd772fda	-0.06034837
54	0xbe3e4bff	-0.18583678
55	0x3d29e21c	0.0414754
56	0x3db8f221	0.090305574
57	0x3e055d47	0.13023864
58	0x3e5390ff	0.2066078
59	0x3cbebef2	0.02328441
60	0xbcac4dfe	-0.021033283
61	0x3e123c8b	0.14280908
62	0x3c48f045	0.012264316
63	0xbc819ba3	-0.015821284
64	0x3db3f570	0.08787048
65	0x3cf797ca	0.030223746
66	0xbdc60471	-0.09668816
67	0xbdab9baf	-0.08379304
68	0xbdf6a369	-0.12042887
69	0xbc9e684e	-0.019336846
70	0xbb0721de	-0.0020619552
71	0x3c6eacb2	0.014567541
72	0x3e06fb03	0.13181691
73	0xbdb95a1a	-0.09050389
74	0x3d859622	0.06522776
75	0xbde22d2e	-0.110437736
76	0x3d80641d	0.06269095
77	0xbdc3cf95	-0.095610775
78	0xbdbc0240	-0.09180117
79	0x3c0f900d	0.008762372
80	0x3ce32ee5	0.027732322
81	0xbdaa4ac4	-0.08315042
82	0x3e11634d	0.14198036
83	0x3d5690f5	0.052384336
84	0xbe01d844	-0.12680155
85	0xbe439754	-0.19100696
86	0xbe6ec0c0	-0.23315716
87	0x3e8d3306	0.2757799
88	0xbda44f4e	-0.08022939
89	0x3da51c72	0.08062066
90	0x3deaeaa5	0.11470536
91	0x3c6e1766	0.014531946
92	0xbd0dd080	-0.03462267
93	0x3cd4a4c1	0.025957467
94	0xbdfa04b4	-0.12207928
95	0xbe060879	-0.1308917
96	0xbda7100d	-0.08157358
97	0x3e55978f	0.20858596
98	0xbd1409b6	-0.036142074
99	0xbeb22e0a	-0.3480075
100	0xbdb94a6b	-0.09047397
101	0x3c2b93f3	0.010472286
102	0xbdf020be	-0.11724995
103	0x3cfcf564	0.03087873
104	0xbd5d1260	-0.053972602
105	0xbd4aadea	-0.049482264
106	0xbe9d6235	-0.3073899
107	0xbdbbd697	-0.09171789
108	0x3bdf688f	0.0068178843
109	0xbd77181e	-0.060325734
110	0xbdd17dbf	-0.10229062
111	0xbcd7790a	-0.026302833
112	0x3cf228be	0.029560443
113	0xbd89b4b4	-0.067239195
114	0xbc977781	-0.018489601
115	0xbc4da235	-0.01255088
116	0xbc19593d	-0.009359655
117	0xbcdf24e9	-0.02723928
118	0x3e39ab32	0.18131712
119	0xbdb37193	-0.08761897
120	0xbe3b0cc5	-0.1826659
121	0xbe85d3ae	-0.2613806
122	0xbcc2263d	-0.023699874
123	0x3d03e7a9	0.03220335
124	0x3ded358a	0.115824774
125	0xbd31a8aa	-0.04337374
126	0xbd510ee2	-0.051039584
127	0x3e25d6b8	0.1619519

last_layer.weight f4 [202, 128]
0	0xbef4660b	-0.47734103
1	0xbf0de2c9	-0.5542417
2	0xbe99f03e	-0.30066103
3	0x3b435685	0.0029806208
4	0xbf6edf08	-0.9330907
5	0xbe089125	-0.13336618
6	0xbf0a0632	-0.53915703
7	0xbee6fe1a	-0.4511574
8	0xbf2fe599	-0.68709713
9	0xbdfd82c0	-0.12378454
10	0xbdb6e2e6	-0.08929996
11	0xbe9e34f3	-0.30899772
12	0xbe379ca4	-0.17930847
13	0xbf06077c	-0.5235517
14	0xbc42c34a	-0.011887381
15	0xbf26daab	-0.6517741
16	0xbdf0e896	-0.11763112
17	0xbcc69c94	-0.024244584
18	0xbe6bfb2a	-0.2304503
19	0xbf4737dd	-0.77819616
20	0xbe3ae73f	-0.18252276
21	0xbd147b2a	-0.03625027
22	0xbe25586f	-0.16147016
23	0xbdd468f4	-0.10371581
24	0xbf170bf3	-0.5900261
25	0xbe80ecd3	-0.25180683
26	0xbfa47b3c	-1.2850108
27	0xbcd0274a	-0.02540936
28	0xbe805718	-0.25066447
29	0xbd558c4a	-0.052135743
30	0xbcdc460e	-0.026888873
31	0xbcbf9fd0	-0.023391634
32	0xbe3157ec	-0.17318696
33	0xbd63c3e4	-0.055606738
34	0x3d90342f	0.07041203
35	0xbef0b9d4	-0.47016776
36	0xbf48ad6b	-0.78389615
37	0xbe512a67	-0.20426331
38	0xbe9221ff	-0.28541562
39	0xbd068d98	-0.032849878
40	0xbf701963	-0.9378874
41	0xbb751de9	-0.003740186
42	0xbd9ac3a1	-0.075568445
43	0xbeeb9bab	-0.46017203
44	0x3d834c48	0.06411034
45	0xbf255c85	-0.645943
46	0xbffd7ee7	-1.9804353
47	0xbda5bc2e	-0.08092533
48	0x3ca262d2	0.019822512
49	0xbbced248	-0.0063116886
50	0xbe93fd5a	-0.2890423
51	0xbea1e430	-0.31619406
52	0xbe265caa	-0.16246286
53	0xbdd85ac1	-0.10564185
54	0xbe38ad25	-0.180348
55	0xbea26f5d	-0.31725588
56	0xc018cf42	-2.38765
57	0xc01bcbfe	-2.4343257
58	0xbf0a749c	-0.5408418
59	0xbe4c6a59	-0.19962443
60	0xbdae6f4b	-0.08517321
61	0xbfa9a887	-1.3254555
62	0x3b421e33	0.002962005
63	0xbf0eefdc	-0.55834746
64	0xbf33742e	-0.7009915
65	0x3bd4943a	0.0064873965
66	0xbe23ed07	-0.16008388
67	0xbe038bd7	-0.12846313
68	0xbd95a04a	-0.07305963
69	0xbf160b98	-0.5861144
70	0xbd779ee8	-0.06045428
71	0xbd71bc16	-0.059017263
72	0xbf1c8c89	-0.6115194
73	0xbdf93957	-0.1216914
74	0xbf61765c	-0.8807123
75	0xbdd10999	-0.10206909
76	0xc0225919	-2.536688
77	0xbdb9c63e	-0.09071015
78	0xbffe7b40	-1.9881363
79	0xbcf66f4d	-0.03008237
80	0xbf5a3e15	-0.8525098
81	0xbe5b0f3d	-0.21392532
82	0xbf0b10dd	-0.54322606
83	0x3d1a7f6f	0.037719186
84	0xbdbceeff	-0.092252724
85	0xbded453c	-0.11585471
86	0xbe0aba8f	-0.13547729
87	0xbf454960	-0.77065086
88	0xbee755bf	-0.45182607
89	0xbf0674d4	-0.52522016
90	0xbf1e378d	-0.61803514
91	0xc0050103	-2.0781868
92	0xbe224273	-0.15845661
93	0xbc323256	-0.010876259
94	0x3b933d73	0.0044934093
95	0xbe97c64c	-0.29643476
96	0xbde60c40	-0.11232805
97	0xbe80873b	-0.25103173
98	0xbcc80d5c	-0.024420433
99	0xbecb78b9	-0.39740542
100	0x3c82482a	0.015903551
101	0xbf20e2af	-0.6284589
102	0xc03fb1fb	-2.995238
103	0xbf054a9d	-0.52066976
104	0xbc976ced	-0.018484557
105	0x3d760dcb	0.060071748
106	0xbdf58427	-0.11988097
107	0x3c9b1b39	0.01893388
108	0xbf9e5738	-1.2370367
109	0x3d99d813	0.07511916
110	0xbc999f12	-0.018752608
111	0x3bb0eea0	0.00539954
112	0xbf65b227	-0.89724964
113	0xbd0be5d5	-0.03415473
114	0xbd699a38	-0.05703184
115	0xbdb80cd6	-0.08986823
116	0xbd25b52d	-0.040455986
117	0xbd4c7b37	-0.049922194
118	0xbe824e8d	-0.25450554
119	0xbdc43b1c	-0.09581587
120	0xbe53833c	-0.2065553
121	0xbe46e7bc	-0.19424337
122	0xbd84fb7d	-0.0649328
123	0xc06073b3	-3.5070617
124	0xbf034880	-0.512825
125	0xbe488839	-0.19583215
126	0x3d50113c	0.050797686
127	0xbf134ec1	-0.57542044
128	0xbee5ed44	-0.44907582
129	0xbeeb7c12	-0.45993096
130	0xbe7fdcc7	-0.24986564
131	0xbd2590bb	-0.04042123
132	0xbf4caccf	-0.79951185
133	0xbe748977	-0.23880564
134	0xbf07c41e	-0.53033626
135	0xbea66a24	-0.32502854
136	0xbf1ce8dc	-0.61292815
137	0xbdcd37c7	-0.10020404
138	0xbd77ec14	-0.060527876
139	0xbeb786c2	-0.35845
140	0xbe1dfb1c	-0.15427822
141	0xbf066bbe	-0.5250815
142	0xbd999b4b	-0.07500323
143	0xbf6d2d0c	-0.9264686
144	0xbe4b80c7	-0.19873343
145	0x3cf23b08	0.029569164
146	0xbded5b24	-0.11589649
147	0xbfaf12ca	-1.3677609
148	0xbe258de4	-0.16167408
149	0xbdad2b77	-0.08455556
150	0xbdc148d8	-0.09437722
151	0xbdcab682	-0.09898092
152	0xbf2e8139	-0.6816593
153	0xbe6b0ea6	-0.22954807
154	0xbf919471	-1.1373426
155	0xbd3cd145	-0.046098012
156	0xbd9534cb	-0.0728546
157	0x3ce9841c	0.028505377
158	0x387078a2	5.7332807e-05
159	0xbd49dd76	-0.049283467
160	0xbe20d16d	-0.1570489
161	0xbda43c41	-0.08019305
162	0x3d1f6f13	0.038924288
163	0xbec550c1	-0.38538173
164	0xbf50d4bd	-0.8157461
165	0xbe15c60b	-0.14626329
166	0xbe765ccb	-0.24058835
167	0x3d8649c4	0.065570384
168	0xbf4dbdc7	-0.803677
169	0xbcd2dcfe	-0.025740143
170	0xbe161f2e	-0.14660332
171	0xbeb445db	-0.35209545
172	0xbdbbaa6b	-0.09163364
173	0xbf80e7ae	-1.0070703
174	0xbfde6b55	-1.7376505
175	0xbe195c8c	-0.1497671
176	0xbd8b1d93	-0.0679275
177	0xbc7b2f60	-0.015331119
178	0xbe30e223	-0.17273764
179	0xbeaebe8c	-0.3412975
180	0xbdcd2902	-0.10017587
181	0xbc07bd8e	-0.008284939
182	0xbe375adc	-0.17905754
183	0xbe963e86	-0.29344577
184	0xbff3eac1	-1.9056016
185	0xbffa5a6d	-1.9558846
186	0xbf11e533	-0.56990355
187	0xbe2d4e62	-0.16924432
188	0xbdaa0abd	-0.083028294
189	0xbf9241ab	-1.142629
190	0x3d234e4d	0.039869595
191	0xbee9e192	-0.4567991
192	0xbf227406	-0.6345829
193	0x3c6793d3	0.014134365
194	0xbd0fcd37	-0.035107818
195	0xbe164f5a	-0.14678708
196	0x3cbbc412	0.022920642
197	0xbf034e6b	-0.5129153
198	0x3c078904	0.008272413
199	0xbc3f59c8	-0.01167912
200	0xbf30f24c	-0.69119716
201	0x3c9ee69e	0.019397076
202	0xbf595e2d	-0.84909326
203	0xbe2d0f26	-0.1690031
204	0xc00b1e4c	-2.1737242
205	0xbd2f1178	-0.04274127
206	0xbff5797b	-1.9177698
207	0xbd40d5fd	-0.047079075
208	0xbf38b0ab	-0.72144574
209	0xbe7c761c	-0.2465443
210	0xbec22b12	-0.37923485
211	0xbd6c8093	-0.057739805
212	0xbe3ebc79	-0.18626584
213	0xbe53f2e1	-0.2069812
214	0xbe2b3dd2	-0.16722801
215	0xbf5b8b28	-0.8575921
216	0xbecfd870	-0.40594816
217	0xbeba1392	-0.36343056
218	0xbf060adf	-0.5236034
219	0xbfc0fe98	-1.5077696
220	0xbe2c224d	-0.1680996
221	0x3d3ca669	0.04605714
222	0xbd163d15	-0.036679346
223	0xbe64223d	-0.22278686
224	0xbde4c845	-0.11171011
225	0xbe99124f	-0.2989678
226	0xbd290692	-0.04126603
227	0xbe4cf5c8	-0.20015633
228	0x3c43c120	0.0119479
229	0xbf1b5154	-0.6067097
230	0xc02e2c0d	-2.7214386
231	0xbed48ff8	-0.4151609
232	0xbc8d563b	-0.017253032
233	0xbc566275	-0.013084997
234	0xbdbe7552	-0.09299721
235	0xbca7c496	-0.020479482
236	0xbf8a2757	-1.0793256
237	0x3ba0d180	0.004907787
238	0xbd88380d	-0.06651316
239	0x3db20871	0.08693016
240	0xbf75a4f7	-0.9595484
241	0x3d915f67	0.07098275
242	0xbc28ca8e	-0.010302199
243	0xbdb0a46d	-0.08625112
244	0xbe169149	-0.1470386
245	0x3d072ed3	0.03300364
246	0xbe242731	-0.16030575
247	0x3c956315	0.018235723
248	0xbe289517	-0.16463123
249	0xbdb5efb6	-0.08883612
250	0xbcbe9ee3	-0.023269122
251	0xc031e3c3	-2.7795265
252	0xbf057d29	-0.52144104
253	0xbdfe4aad	-0.12416587
254	0x3d7cc3e5	0.061710257
255	0xbef88337	-0.4853761

last_layer.bias f4 [202]
0	0xbf5209bc	-0.82046103
1	0xbf656301	-0.8960419
2	0xbf516cc9	-0.8180662
3	0xbf2f2687	-0.68418163
4	0xbf50be7b	-0.8154065
5	0xbf620712	-0.8829204
6	0xbf340f0d	-0.70335466
7	0xbf2baaa2	-0.6705724
8	0xbf4a1628	-0.7894006
9	0xbf432ffe	-0.76245105
10	0xbf572aaf	-0.84049505
11	0xbf44b3af	-0.76836675
12	0xbf47dfdf	-0.78075975
13	0xbf333578	-0.7000346
14	0xbf4f9e3e	-0.81100833
15	0xbf34a697	-0.70566696
16	0xbf44bd01	-0.768509
17	0xbf33fab1	-0.703044
18	0xbf4772d5	-0.77909595
19	0xbf23f441	-0.64044577
20	0xbf234c48	-0.6378827
21	0xbf27b523	-0.6551077
22	0xbf278455	-0.654363
23	0xbf369cbf	-0.71332926
24	0xbf2fc102	-0.6865388
25	0xbf2b1262	-0.66824925
26	0xbf0ec2a6	-0.5576576
27	0xbf17bd78	-0.5927348
28	0xbf140ca1	-0.5783177
29	0xbf18c109	-0.5966955
30	0xbf294456	-0.661199
31	0xbf037b42	-0.5135995
32	0xbf20e12d	-0.6284359
33	0xbf0880e3	-0.53321666
34	0xbf14f402	-0.58184826
35	0xbf227d4d	-0.63472444
36	0xbf1a76ce	-0.6033753
37	0xbf14775a	-0.57994616
38	0xbf21f8a9	-0.6327005
39	0xbf0a9f39	-0.54149204
40	0xbf242004	-0.6411135
41	0xbf131b23	-0.5746328
42	0xbf0d9cfd	-0.5531767
43	0xbf0f403b	-0.5595738
44	0xbf0818a5	-0.53162605
45	0xbf154f69	-0.58324295
46	0xbf06fc75	-0.5272897
47	0xbeface85	-0.48985687
48	0xbf0e6361	-0.5562039
49	0xbef84f4d	-0.48498002
50	0xbd69d113	-0.057084154
51	0x3d0962f7	0.033541646
52	0x3d529911	0.051415507
53	0x3d8a3305	0.067480125
54	0x3c320d86	0.010867482
55	0x3c43948f	0.011937275
56	0xbd30b75e	-0.043143623
57	0xbd631755	-0.055442173
58	0xbd3ae124	-0.045624867
59	0xbbeb09bf	-0.0071727927
60	0x3d12b7f8	0.035819978
61	0x3d842eb7	0.06454223
62	0x3cdfc963	0.027317708
63	0x3e0d1355	0.13776906
64	0x3d285305	0.0410948
65	0x3df0db09	0.11760528
66	0x3d35fec9	0.044432435
67	0x3e0e4f4b	0.13897435
68	0x3e19c9b7	0.15018354
69	0x3dc09f78	0.09405416
70	0x3ddc7ace	0.10765611
71	0x3d5140e4	0.051087275
72	0x3e0f1899	0.13974227
73	0x3d6c47d2	0.05768568
74	0x3dc079d6	0.09398238
75	0x3c2cf8fd	0.01055741
76	0x3d69993b	0.057030898
77	0xb922147a	-0.00015457152
78	0x3d17edb2	0.03709192
79	0x3d5f5e7a	0.05453346
80	0xbbf2c5bc	-0.0074088257
81	0x3ca70179	0.020386444
82	0x3d8cf34e	0.06882344
83	0x3dc4b170	0.09604156
84	0x3c8f9996	0.01752929
85	0xbc2ed3af	-0.0106705865
86	0xbd05a944	-0.032632127
87	0xbd215fe2	-0.03939808
88	0xbd0a0c01	-0.033702854
89	0xbcada9e2	-0.02119917
90	0x3d8efa1b	0.069812976
91	0x3dbfa5cd	0.09357796
92	0x3dedb4fc	0.11606786
93	0x3d52e89f	0.051491376
94	0x3e498c78	0.19682491
95	0x3e107378	0.14106548
96	0x3e0cadb6	0.1373814
97	0x3e31a7a3	0.17349105
98	0x3d95a092	0.07306017
99	0x3d93a7c5	0.07209734
100	0x3ea3a107	0.31958792
101	0xbef9aa59	-0.48762777
102	0xbf116892	-0.56800187
103	0xbf3dc19e	-0.7412356
104	0xbf547cfd	-0.83003217
105	0xbf2b6db6	-0.6696428
106	0xbf25afc2	-0.6472131
107	0xbf2f0a1e	-0.6837481
108	0xbf173d5a	-0.5907799
109	0xbf15305a	-0.58276904
110	0xbf271346	-0.65263784
111	0xbf223542	-0.63362515
112	0xbf3e9b38	-0.74455595
113	0xbf07a0c8	-0.5297971
114	0xbf445333	-0.7668945
115	0xbf1a216b	-0.6020724
116	0xbf10ea84	-0.5660784
117	0xbf2fd1b6	-0.6867937
118	0xbf0cea0b	-0.5504462
119	0xbf13b30c	-0.5769508
120	0xbf0c04fa	-0.54695094
121	0xbf239e2c	-0.63913226
122	0xbf1d6081	-0.6147538
123	0xbf171a27	-0.5902428
124	0xbf0e576a	-0.55602133
125	0xbf086a2b	-0.53287
126	0xbf0a1f12	-0.5395366
127	0xbf0e495a	-0.55580676
128	0xbf0d8584	-0.55281854
129	0xbf246820	-0.6422138
130	0xbf0e017a	-0.55471003
131	0xbef54ebe	-0.47911638
132	0xbeef959e	-0.46793836
133	0xbf21b73f	-0.63170236
134	0xbec1881a	-0.3779915
135	0xbf17625f	-0.5913448
136	0xbf082cc9	-0.53193337
137	0xbf0ecf6e	-0.5578526
138	0xbf0105cf	-0.5039949
139	0xbf1ec758	-0.62022924
140	0xbed41953	-0.4142557
141	0xbf0d42eb	-0.55180234
142	0xbe9211ed	-0.285293
143	0xbf0374fb	-0.51350373
144	0xbf12ab14	-0.57292295
145	0xbf0101e7	-0.5039353
146	0xbed2b096	-0.4115035
147	0xbf183f86	-0.5947193
148	0xbf09395f	-0.53603166
149	0xbf1ccc80	-0.6124954
150	0xbeea4efd	-0.45763388
151	0xbd7f63e2	-0.062351115
152	0x3d5cc3c2	0.053897627
153	0x3cb0a7c1	0.021564366
154	0x3d3b557e	0.04573583
155	0xbd2f0bb3	-0.042735767
156	0xbdacc281	-0.08435536
157	0xbce9d335	-0.028543094
158	0x3d00f0cd	0.031479646
159	0x3ceb501d	0.028724724
160	0xbc6f4bdd	-0.01460549
161	0x3da5676d	0.080763675
162	0x3cd354fb	0.025797358
163	0x3dec56b7	0.11539977
164	0x3d2b2051	0.041778866
165	0x3dfd5f67	0.12371712
166	0x3e188814	0.1489566
167	0x3e1b5a01	0.15171053
168	0x3e3b4567	0.18288194
169	0x3e4c38d6	0.19943556
170	0x3e5d88f2	0.21634272
171	0x3e322416	0.17396578
172	0x3e41c965	0.18924482
173	0x3e2a3f72	0.16625765
174	0x3e406b8e	0.18791029
175	0x3e497c5e	0.19676349
176	0x3e088208	0.13330853
177	0x3e3ea77a	0.18618575
178	0x3e0364e2	0.12831452
179	0x3e1e4846	0.15457258
180	0x3ddf40b2	0.109010115
181	0x3e2b2d73	0.16716556
182	0x3e3f4dbf	0.18682002
183	0x3e46424a	0.19361225
184	0x3dfb6eac	0.12276968
185	0x3dbdb049	0.09262139
186	0x3e1df411	0.15425135
187	0x3dd7cfeb	0.10537704
188	0x3d9e513e	0.077303395
189	0x3dabc775	0.08387653
190	0x3d3f1650	0.04665214
191	0x3d80b6b6	0.06284849
192	0x3e219613	0.15779905
193	0x3e0509ce	0.12992021
194	0x3dd4bb4d	0.10387287
195	0x3e1ea3ce	0.15492174
196	0x3e63508e	0.22198698
197	0x3e2960aa	0.1654078
198	0x3e430eea	0.19048658
199	0x3d3cd74f	0.04610377
200	0x3d36563a	0.044515826
201	0x3ec8af5b	0.39196286
